…
x_test shape: (10000, 32, 32, 3)
y_train shape: (50000, 1)
y_test shape: (10000, 1)

Model: "model"
__________________________________________________________________________________________________
 Layer (type)                   Output Shape         Param #     Connected to                     
==================================================================================================
 input_1 (InputLayer)           [(None, 32, 32, 3)]  0           []                               
                                                                                                  
 conv2d (Conv2D)                (None, 32, 32, 16)   448         ['input_1[0][0]']                
                                                                                                  
 batch_normalization (BatchNorm  (None, 32, 32, 16)  64          ['conv2d[0][0]']                 
 alization)                                                                                       
                                                                                                  
 activation (Activation)        (None, 32, 32, 16)   0           ['batch_normalization[0][0]']    
                                                                                                  
 conv2d_1 (Conv2D)              (None, 32, 32, 16)   2320        ['activation[0][0]']             
                                                                                                  
 batch_normalization_1 (BatchNo  (None, 32, 32, 16)  64          ['conv2d_1[0][0]']               
 rmalization)                                                                                     
                                                                                                  
 activation_1 (Activation)      (None, 32, 32, 16)   0           ['batch_normalization_1[0][0]']  
                                                                                                  
 conv2d_2 (Conv2D)              (None, 32, 32, 16)   2320        ['activation_1[0][0]']           
                                                                                                  
 batch_normalization_2 (BatchNo  (None, 32, 32, 16)  64          ['conv2d_2[0][0]']               
 rmalization)                                                                                     
                                                                                                  
 add (Add)                      (None, 32, 32, 16)   0           ['activation[0][0]',             
                                                                  'batch_normalization_2[0][0]']  
                                                                                                  
 activation_2 (Activation)      (None, 32, 32, 16)   0           ['add[0][0]']                    
                                                                                                  
 conv2d_3 (Conv2D)              (None, 32, 32, 16)   2320        ['activation_2[0][0]']           
                                                                                                  
 batch_normalization_3 (BatchNo  (None, 32, 32, 16)  64          ['conv2d_3[0][0]']               
 rmalization)                                                                                     
                                                                                                  
 activation_3 (Activation)      (None, 32, 32, 16)   0           ['batch_normalization_3[0][0]']  
                                                                                                  
 conv2d_4 (Conv2D)              (None, 32, 32, 16)   2320        ['activation_3[0][0]']           
                                                                                                  
 batch_normalization_4 (BatchNo  (None, 32, 32, 16)  64          ['conv2d_4[0][0]']               
 rmalization)                                                                                     
                                                                                                  
 add_1 (Add)                    (None, 32, 32, 16)   0           ['activation_2[0][0]',           
                                                                  'batch_normalization_4[0][0]']  
                                                                                                  
 activation_4 (Activation)      (None, 32, 32, 16)   0           ['add_1[0][0]']                  
                                                                                                  
 conv2d_5 (Conv2D)              (None, 32, 32, 16)   2320        ['activation_4[0][0]']           
                                                                                                  
 batch_normalization_5 (BatchNo  (None, 32, 32, 16)  64          ['conv2d_5[0][0]']               
 rmalization)                                                                                     
                                                                                                  
 activation_5 (Activation)      (None, 32, 32, 16)   0           ['batch_normalization_5[0][0]']  
                                                                                                  
 conv2d_6 (Conv2D)              (None, 32, 32, 16)   2320        ['activation_5[0][0]']           
                                                                                                  
 batch_normalization_6 (BatchNo  (None, 32, 32, 16)  64          ['conv2d_6[0][0]']               
 rmalization)                                                                                     
                                                                                                  
 add_2 (Add)                    (None, 32, 32, 16)   0           ['activation_4[0][0]',           
                                                                  'batch_normalization_6[0][0]']  
                                                                                                  
 activation_6 (Activation)      (None, 32, 32, 16)   0           ['add_2[0][0]']                  
                                                                                                  
 conv2d_7 (Conv2D)              (None, 32, 32, 16)   2320        ['activation_6[0][0]']           
                                                                                                  
 batch_normalization_7 (BatchNo  (None, 32, 32, 16)  64          ['conv2d_7[0][0]']               
 rmalization)                                                                                     
                                                                                                  
 activation_7 (Activation)      (None, 32, 32, 16)   0           ['batch_normalization_7[0][0]']  
                                                                                                  
 conv2d_8 (Conv2D)              (None, 32, 32, 16)   2320        ['activation_7[0][0]']           
                                                                                                  
 batch_normalization_8 (BatchNo  (None, 32, 32, 16)  64          ['conv2d_8[0][0]']               
 rmalization)                                                                                     
                                                                                                  
 add_3 (Add)                    (None, 32, 32, 16)   0           ['activation_6[0][0]',           
                                                                  'batch_normalization_8[0][0]']  
                                                                                                  
 activation_8 (Activation)      (None, 32, 32, 16)   0           ['add_3[0][0]']                  
                                                                                                  
 conv2d_9 (Conv2D)              (None, 16, 16, 32)   4640        ['activation_8[0][0]']           
                                                                                                  
 batch_normalization_9 (BatchNo  (None, 16, 16, 32)  128         ['conv2d_9[0][0]']               
 rmalization)                                                                                     
                                                                                                  
 activation_9 (Activation)      (None, 16, 16, 32)   0           ['batch_normalization_9[0][0]']  
                                                                                                  
 conv2d_10 (Conv2D)             (None, 16, 16, 32)   9248        ['activation_9[0][0]']           
                                                                                                  
 conv2d_11 (Conv2D)             (None, 16, 16, 32)   544         ['activation_8[0][0]']           
                                                                                                  
 batch_normalization_10 (BatchN  (None, 16, 16, 32)  128         ['conv2d_10[0][0]']              
 ormalization)                                                                                    
                                                                                                  
 add_4 (Add)                    (None, 16, 16, 32)   0           ['conv2d_11[0][0]',              
                                                                  'batch_normalization_10[0][0]'] 
                                                                                                  
 activation_10 (Activation)     (None, 16, 16, 32)   0           ['add_4[0][0]']                  
                                                                                                  
 conv2d_12 (Conv2D)             (None, 16, 16, 32)   9248        ['activation_10[0][0]']          
                                                                                                  
 batch_normalization_11 (BatchN  (None, 16, 16, 32)  128         ['conv2d_12[0][0]']              
 ormalization)                                                                                    
                                                                                                  
 activation_11 (Activation)     (None, 16, 16, 32)   0           ['batch_normalization_11[0][0]'] 
                                                                                                  
 conv2d_13 (Conv2D)             (None, 16, 16, 32)   9248        ['activation_11[0][0]']          
                                                                                                  
 batch_normalization_12 (BatchN  (None, 16, 16, 32)  128         ['conv2d_13[0][0]']              
 ormalization)                                                                                    
                                                                                                  
 add_5 (Add)                    (None, 16, 16, 32)   0           ['activation_10[0][0]',          
                                                                  'batch_normalization_12[0][0]'] 
                                                                                                  
 activation_12 (Activation)     (None, 16, 16, 32)   0           ['add_5[0][0]']                  
                                                                                                  
 conv2d_14 (Conv2D)             (None, 16, 16, 32)   9248        ['activation_12[0][0]']          
                                                                                                  
 batch_normalization_13 (BatchN  (None, 16, 16, 32)  128         ['conv2d_14[0][0]']              
 ormalization)                                                                                    
                                                                                                  
 activation_13 (Activation)     (None, 16, 16, 32)   0           ['batch_normalization_13[0][0]'] 
                                                                                                  
 conv2d_15 (Conv2D)             (None, 16, 16, 32)   9248        ['activation_13[0][0]']          
                                                                                                  
 batch_normalization_14 (BatchN  (None, 16, 16, 32)  128         ['conv2d_15[0][0]']              
 ormalization)                                                                                    
                                                                                                  
 add_6 (Add)                    (None, 16, 16, 32)   0           ['activation_12[0][0]',          
                                                                  'batch_normalization_14[0][0]'] 
                                                                                                  
 activation_14 (Activation)     (None, 16, 16, 32)   0           ['add_6[0][0]']                  
                                                                                                  
 conv2d_16 (Conv2D)             (None, 16, 16, 32)   9248        ['activation_14[0][0]']          
                                                                                                  
 batch_normalization_15 (BatchN  (None, 16, 16, 32)  128         ['conv2d_16[0][0]']              
 ormalization)                                                                                    
                                                                                                  
 activation_15 (Activation)     (None, 16, 16, 32)   0           ['batch_normalization_15[0][0]'] 
                                                                                                  
 conv2d_17 (Conv2D)             (None, 16, 16, 32)   9248        ['activation_15[0][0]']          
                                                                                                  
 batch_normalization_16 (BatchN  (None, 16, 16, 32)  128         ['conv2d_17[0][0]']              
 ormalization)                                                                                    
                                                                                                  
 add_7 (Add)                    (None, 16, 16, 32)   0           ['activation_14[0][0]',          
                                                                  'batch_normalization_16[0][0]'] 
                                                                                                  
 activation_16 (Activation)     (None, 16, 16, 32)   0           ['add_7[0][0]']                  
                                                                                                  
 conv2d_18 (Conv2D)             (None, 8, 8, 64)     18496       ['activation_16[0][0]']          
                                                                                                  
 batch_normalization_17 (BatchN  (None, 8, 8, 64)    256         ['conv2d_18[0][0]']              
 ormalization)                                                                                    
                                                                                                  
 activation_17 (Activation)     (None, 8, 8, 64)     0           ['batch_normalization_17[0][0]'] 
                                                                                                  
 conv2d_19 (Conv2D)             (None, 8, 8, 64)     36928       ['activation_17[0][0]']          
                                                                                                  
 conv2d_20 (Conv2D)             (None, 8, 8, 64)     2112        ['activation_16[0][0]']          
                                                                                                  
 batch_normalization_18 (BatchN  (None, 8, 8, 64)    256         ['conv2d_19[0][0]']              
 ormalization)                                                                                    
                                                                                                  
 add_8 (Add)                    (None, 8, 8, 64)     0           ['conv2d_20[0][0]',              
                                                                  'batch_normalization_18[0][0]'] 
                                                                                                  
 activation_18 (Activation)     (None, 8, 8, 64)     0           ['add_8[0][0]']                  
                                                                                                  
 conv2d_21 (Conv2D)             (None, 8, 8, 64)     36928       ['activation_18[0][0]']          
                                                                                                  
 batch_normalization_19 (BatchN  (None, 8, 8, 64)    256         ['conv2d_21[0][0]']              
 ormalization)                                                                                    
                                                                                                  
 activation_19 (Activation)     (None, 8, 8, 64)     0           ['batch_normalization_19[0][0]'] 
                                                                                                  
 conv2d_22 (Conv2D)             (None, 8, 8, 64)     36928       ['activation_19[0][0]']          
                                                                                                  
 batch_normalization_20 (BatchN  (None, 8, 8, 64)    256         ['conv2d_22[0][0]']              
 ormalization)                                                                                    
                                                                                                  
 add_9 (Add)                    (None, 8, 8, 64)     0           ['activation_18[0][0]',          
                                                                  'batch_normalization_20[0][0]'] 
                                                                                                  
 activation_20 (Activation)     (None, 8, 8, 64)     0           ['add_9[0][0]']                  
                                                                                                  
 conv2d_23 (Conv2D)             (None, 8, 8, 64)     36928       ['activation_20[0][0]']          
                                                                                                  
 batch_normalization_21 (BatchN  (None, 8, 8, 64)    256         ['conv2d_23[0][0]']              
 ormalization)                                                                                    
                                                                                                  
 activation_21 (Activation)     (None, 8, 8, 64)     0           ['batch_normalization_21[0][0]'] 
                                                                                                  
 conv2d_24 (Conv2D)             (None, 8, 8, 64)     36928       ['activation_21[0][0]']          
                                                                                                  
 batch_normalization_22 (BatchN  (None, 8, 8, 64)    256         ['conv2d_24[0][0]']              
 ormalization)                                                                                    
                                                                                                  
 add_10 (Add)                   (None, 8, 8, 64)     0           ['activation_20[0][0]',          
                                                                  'batch_normalization_22[0][0]'] 
                                                                                                  
 activation_22 (Activation)     (None, 8, 8, 64)     0           ['add_10[0][0]']                 
                                                                                                  
 conv2d_25 (Conv2D)             (None, 8, 8, 64)     36928       ['activation_22[0][0]']          
                                                                                                  
 batch_normalization_23 (BatchN  (None, 8, 8, 64)    256         ['conv2d_25[0][0]']              
 ormalization)                                                                                    
                                                                                                  
 activation_23 (Activation)     (None, 8, 8, 64)     0           ['batch_normalization_23[0][0]'] 
                                                                                                  
 conv2d_26 (Conv2D)             (None, 8, 8, 64)     36928       ['activation_23[0][0]']          
                                                                                                  
 batch_normalization_24 (BatchN  (None, 8, 8, 64)    256         ['conv2d_26[0][0]']              
 ormalization)                                                                                    
                                                                                                  
 add_11 (Add)                   (None, 8, 8, 64)     0           ['activation_22[0][0]',          
                                                                  'batch_normalization_24[0][0]'] 
                                                                                                  
 activation_24 (Activation)     (None, 8, 8, 64)     0           ['add_11[0][0]']                 
                                                                                                  
 average_pooling2d (AveragePool  (None, 1, 1, 64)    0           ['activation_24[0][0]']          
 ing2D)                                                                                           
                                                                                                  
 flatten (Flatten)              (None, 64)           0           ['average_pooling2d[0][0]']      
                                                                                                  
 dense (Dense)                  (None, 10)           650         ['flatten[0][0]']                
                                                                                                  
==================================================================================================
Total params: 372,330
Trainable params: 370,506
Non-trainable params: 1,824
__________________________________________________________________________________________________
…
